…
rch/#torchsummay","title":"torchsummay","text":"<p>\u53ef\u4ee5\u7528\u6765\u6253\u5370\u7f51\u7edc\u7684\u7ed3\u6784\u53c2\u6570</p> <p>\u7528\u6cd5\u793a\u4f8b</p> <pre><code>from torchsummary import summary\nfrom torchvision.models import resnet18\n\nmodel = resnet18()\nsummary(model, input_size=[(3, 256, 256)], batch_size=2, device=\"cpu\")\n</code></pre> <pre><code>----------------------------------------------------------------\n        Layer (type)               Output Shape         Param #\n================================================================\n            Conv2d-1          [2, 64, 128, 128]           9,408\n       BatchNorm2d-2          [2, 64, 128, 128]             128\n              ReLU-3          [2, 64, 128, 128]               0\n         MaxPool2d-4            [2, 64, 64, 64]               0\n            Conv2d-5            [2, 64, 64, 64]          36,864\n       BatchNorm2d-6            [2, 64, 64, 64]             128\n              ReLU-7            [2, 64, 64, 64]               0\n            Conv2d-8            [2, 64, 64, 64]          36,864\n       BatchNorm2d-9            [2, 64, 64, 64]             128\n             ReLU-10            [2, 64, 64, 64]               0\n       BasicBlock-11            [2, 64, 64, 64]               0\n           Conv2d-12            [2, 64, 64, 64]          36,864\n      BatchNorm2d-13            [2, 64, 64, 64]             128\n             ReLU-14            [2, 64, 64, 64]               0\n           Conv2d-15            [2, 64, 64, 64]          36,864\n      BatchNorm2d-16            [2, 64, 64, 64]             128\n             ReLU-17            [2, 64, 64, 64]               0\n       BasicBlock-18            [2, 64, 64, 64]               0\n           Conv2d-19           [2, 128, 32, 32]          73,728\n      BatchNorm2d-20           [2, 128, 32, 32]             256\n             ReLU-21           [2, 128, 32, 32]               0\n           Conv2d-22           [2, 128, 32, 32]         147,456\n...\nForward/backward pass size (MB): 164.02\nParams size (MB): 44.59\nEstimated Total Size (MB): 210.12\n----------------------------------------------------------------\n</code></pre>"},{"location":"DeepLearning/PyTorch/#multiple-gpus","title":"Multiple GPUs","text":""},{"location":"DeepLearning/PyTorch/#_4","title":"\u62c6\u5206\u6570\u636e","text":"<p>\u8fd9\u79cd\u65b9\u5f0f\u4e0b\uff0c\u62
…
 = 224,\n        patch_size = 16,\n        num_classes = 1000,\n        dim = 768,\n        depth = 6,\n        heads = 16,\n        mlp_dim = 2048,\n        dropout = 0.1,\n        emb_dropout = 0.1\n    )\n\nimg = torch.randn(16, 3, 224, 224)\nsummary(model_vit, input_size=img.shape[1:],batch_size=img.shape[0])\nprint(model_vit(img).shape)\n</code></pre> <pre><code>----------------------------------------------------------------\n        Layer (type)               Output Shape         Param #\n================================================================\n         Rearrange-1             [16, 196, 768]               0\n         LayerNorm-2             [16, 196, 768]           1,536\n            Linear-3             [16, 196, 768]         590,592\n         LayerNorm-4             [16, 196, 768]           1,536\n           Dropout-5             [16, 197, 768]               0\n         LayerNorm-6             [16, 197, 768]           1,536\n            Linear-7            [16, 197, 3072]       2,359,296\n           Softmax-8         [16, 16, 197, 197]               0\n           Dropout-9         [16, 16, 197, 197]               0\n           Linear-10             [16, 197, 768]         787,200\n          Dropout-11             [16, 197, 768]               0\n        Attention-12             [16, 197, 768]               0\n        LayerNorm-13             [16, 197, 768]           1,536\n           Linear-14            [16, 197, 2048]       1,574,912\n             GELU-15            [16, 197, 2048]               0\n          Dropout-16            [16, 197, 2048]               0\n           Linear-17             [16, 197, 768]       1,573,632\n          Dropout-18             [16, 197, 768]               0\n      FeedForward-19             [16, 197, 768]               0\n        LayerNorm-20             [16, 197, 768]           1,536\n           Linear-21            [16, 197, 3072]       2,359,296\n          Softmax-22         [16, 16, 197, 197]               0\n\ntorch.Size([16, 1000])\n</code></pre>"},{"location":"PEFT/CLIP/","title":"CLIP","text":"<p>Contrastive Language-Image Pre-training</p> <p>Learning Transferable Visual Models From Natural Language Supervision</p> <p>OpenAI Blog</p> <p></p>"},{"location":"PEFT/CLIP/#_1","title":"\u9884\u8bad\u7ec3\u65b9\u6cd5","text":"<p>\u6587\u672c\u548c\u56fe\u50cf\u5206\u522b\u4f7f\u7528\u9884\u8bad\u7ec3\u5
…
